…
 = 'relu' )( x ) x = Conv2D ( 128 , ( 3 , 3 ), strides = 2 , activation = 'relu' )( x ) x = Flatten ()( x ) x = Dropout ( 0.2 )( x ) x = Dense ( 512 , activation = 'relu' )( x ) x = Dropout ( 0.2 )( x ) x = Dense ( K , activation = 'softmax' )( x ) model = Model ( i , x ) model . summary () Model: \"model\" _________________________________________________________________ Layer (type) Output Shape Param # ================================================================= input_1 (InputLayer) [(None, 28, 28, 1)] 0 _________________________________________________________________ conv2d (Conv2D) (None, 13, 13, 32) 320 _________________________________________________________________ conv2d_1 (Conv2D) (None, 6, 6, 64) 18496 _________________________________________________________________ conv2d_2 (Conv2D) (None, 2, 2, 128) 73856 _________________________________________________________________ flatten (Flatten) (None, 512) 0 _________________________________________________________________ dropout (Dropout) (None, 512) 0 _________________________________________________________________ dense (Dense) (None, 512) 262656 _________________________________________________________________ dropout_1 (Dropout) (None, 512) 0 _________________________________________________________________ dense_1 (Dense) (None, 10) 5130 ================================================================= Total params: 360,458 Trainable params: 360,458 Non-trainable params: 0 _________________________________________________________________ # Compile and fit # Note: make sure you are using the GPU for this! model . compile ( optimizer = 'adam' , loss = 'sparse_categorical_crossentropy' , metrics = [ 'accuracy' ]) r = model . fit ( x
…
!= y_test )[ 0 ] i = np . random . choice ( misclassified_idx ) plt . imshow ( x_test [ i ], cmap = 'gray' ) plt . title ( \"True label: %s Predicted: %s \" % ( labels [ y_test [ i ]], labels [ p_test [ i ]])); # Now that the model is so large, it's useful to summarize it model . summary () Model: \"model\" _________________________________________________________________ Layer (type) Output Shape Param # ================================================================= input_1 (InputLayer) [(None, 32, 32, 3)] 0 _________________________________________________________________ conv2d (Conv2D) (None, 32, 32, 32) 896 _________________________________________________________________ batch_normalization (BatchNo (None, 32, 32, 32) 128 _________________________________________________________________ conv2d_1 (Conv2D) (None, 32, 32, 32) 9248 _________________________________________________________________ batch_normalization_1 (Batch (None, 32, 32, 32) 128 _________________________________________________________________ max_pooling2d (MaxPooling2D) (None, 16, 16, 32) 0 _________________________________________________________________ conv2d_2 (Conv2D) (None, 16, 16, 64) 18496 _________________________________________________________________ batch_normalization_2 (Batch (None, 16, 16, 64) 256 _________________________________________________________________ conv2d_3 (Conv2D) (None, 16, 16, 64) 36928 _________________________________________________________________ batch_normalization_3 (Batch (None, 16, 16, 64) 256 _________________________________________________________________ max_pooling2d_1 (MaxPooling2 (None, 8, 8, 64) 0 _________________________________________________________________ conv2d_4 (Conv2D) (None, 8, 8, 128) 73856 _________________________________________________________________ batch_normalization_4 (Batch (None, 8, 8, 128) 512 _________________________________________________________________ conv2d_5 (Conv2D) (None, 8, 8, 128) 147584 _________________________________________________________________ batch_normalization_5 (Batch (None, 8, 8, 128) 512 _________________________________________________________________ max_pooling2d_2 (MaxPooling2 (None, 4, 4, 128) 0 _________________________________________________________________ flatten (Flatten) (None, 2048) 0 _________________________________________________________________ dropout (Dropout) (None, 2048) 0 _________________________________________________________________ dense (Dense) (None, 1024) 2098176 _________________________________________________________________ dropout_1 (Dropout) (None, 1024) 0 _________________________________________________________________ dense_1 (Dense) (None, 10) 10250 ================================================================= Total params: 2,397,226 Trainable params: 2,396,330 Non-trainable params: 896 _________________________________________________________________ Copyright Qalmaqihir For more information, visit us at www.github.com/qalmaqihir/","title":"TF2 0 CIFAR Improved"},{"location":"bootcampsnotes/TensorFlowDLBootCamp/CNN/TF2_0_Fashion_MNIST/"
…
del ( input_shape = IMAGE_SIZE + [ 3 ], weights = 'imagenet' , include_top = False ) # map the data into feature vectors x = Flatten ()( ptm . output ) # create a model object model = Model ( inputs = ptm . input , outputs = x ) # view the structure of the model model . summary () Model: \"model_3\" _________________________________________________________________ Layer (type) Output Shape Param # ================================================================= input_3 (InputLayer) [(None, 200, 200, 3)] 0 _________________________________________________________________ block1_conv1 (Conv2D) (None, 200, 200, 64) 1792 _________________________________________________________________ block1_conv2 (Conv2D) (None, 200, 200, 64) 36928 _________________________________________________________________ block1_pool (MaxPooling2D) (None, 100, 100, 64) 0 _________________________________________________________________ block2_conv1 (Conv2D) (None, 100, 100, 128) 73856 _________________________________________________________________ block2_conv2 (Conv2D) (None, 100, 100, 128) 147584 _________________________________________________________________ block2_pool (MaxPooling2D) (None, 50, 50, 128) 0 _________________________________________________________________ block3_conv1 (Conv2D) (None, 50, 50, 256) 295168 _________________________________________________________________ block3_conv2 (Conv2D) (None, 50, 50, 256) 590080 _________________________________________________________________ block3_conv3 (Conv2D) (None, 50, 50, 256) 590080 _________________________________________________________________ block3_pool (MaxPooling2D) (None, 25, 25, 256) 0 _________________________________________________________________ block4_conv1 (Conv2D) (None, 25, 25, 512) 1180160 _________________________________________________________________ block4_conv2 (Conv2D) (None, 25, 25, 512) 2359808 _________________________________________________________________ block4_conv3 (Conv2D) (None, 25, 25, 512) 2359808 _________________________________________________________________ block4_pool (MaxPooling2D) (None, 12, 12, 512) 0 _________________________________________________________________ block5_conv1 (Conv2D) (None, 12, 12, 512) 2359808 _________________________________________________________________ block5_conv2 (Conv2D) (None, 12, 12, 512) 2359808 _________________________________________________________________ block5_conv3 (Conv2D) (None, 12, 12, 512) 2359808 _________________________________________________________________ block5_pool (MaxPooling2D) (None, 6, 6, 512) 0 _________________________________________________________________ flatten_2 (Flatten) (None, 18432) 0 ================================================================= Total params: 14,714,688 Trainable params: 14,714,688 Non-trainable params: 0 _________________________________________________________________ # create an instance of ImageDataGenerator gen = ImageDataGenerator ( preprocessing_function = preprocess_input ) batch_size = 128 # create generators train_generator = gen . flow_from_dire
…
ator returns classes one-hot encoded K = len ( folders ) # number of classes x = Flatten ()( ptm . output ) x = Dense ( K , activation = 'softmax' )( x ) # create a model object model = Model ( inputs = ptm . input , outputs = x ) # view the structure of the model model . summary () Model: \"model\" _________________________________________________________________ Layer (type) Output Shape Param # ================================================================= input_1 (InputLayer) [(None, 200, 200, 3)] 0 _________________________________________________________________ block1_conv1 (Conv2D) (None, 200, 200, 64) 1792 _________________________________________________________________ block1_conv2 (Conv2D) (None, 200, 200, 64) 36928 _________________________________________________________________ block1_pool (MaxPooling2D) (None, 100, 100, 64) 0 _________________________________________________________________ block2_conv1 (Conv2D) (None, 100, 100, 128) 73856 _________________________________________________________________ block2_conv2 (Conv2D) (None, 100, 100, 128) 147584 _________________________________________________________________ block2_pool (MaxPooling2D) (None, 50, 50, 128) 0 _________________________________________________________________ block3_conv1 (Conv2D) (None, 50, 50, 256) 295168 _________________________________________________________________ block3_conv2 (Conv2D) (None, 50, 50, 256) 590080 _________________________________________________________________ block3_conv3 (Conv2D) (None, 50, 50, 256) 590080 _________________________________________________________________ block3_pool (MaxPooling2D) (None, 25, 25, 256) 0 _________________________________________________________________ block4_conv1 (Conv2D) (None, 25, 25, 512) 1180160 _________________________________________________________________ block4_conv2 (Conv2D) (None, 25, 25, 512) 2359808 _________________________________________________________________ block4_conv3 (Conv2D) (None, 25, 25, 512) 2359808 _________________________________________________________________ block4_pool (MaxPooling2D) (None, 12, 12, 512) 0 _________________________________________________________________ block5_conv1 (Conv2D) (None, 12, 12, 512) 2359808 _________________________________________________________________ block5_conv2 (Conv2D) (None, 12, 12, 512) 2359808 _________________________________________________________________ block5_conv3 (Conv2D) (None, 12, 12, 512) 2359808 _________________________________________________________________ block5_pool (MaxPooling2D) (None, 6, 6, 512) 0 _________________________________________________________________ flatten (Flatten) (None, 18432) 0 _________________________________________________________________ dense (Dense) (None, 2) 36866 ================================================================= Total params: 14,751,554 Trainable params: 36,866 Non-trainable params: 14,714,688 _________________________________________________________________ # create an instance of ImageDataGenerator gen_train = ImageDataGenerator ( rotation_range = 20 , width_shift_range = 0.1 , height_shift_range = 0.1 , shear_range = 0.1 , zoom_range = 
…
