…
 ( nn . Dropout ( p )) n_in = i layerlist . append ( nn . Linear ( layers [ - 1 ], out_sz )) self . layers = nn . Sequential ( * layerlist ) def forward ( self , x_cat , x_cont ): embeddings = [] for i , e in enumerate ( self . embeds ): embeddings . append ( e ( x_cat [:, i ])) x = torch . cat ( embeddings , 1 ) x = self . emb_drop ( x ) x_cont = self . bn_cont ( x_cont ) x = torch . cat ([ x , x_cont ], 1 ) x = self . layers ( x ) return x torch . manual_seed ( 33 ) model = TabularModel ( emb_szs , conts . shape [ 1 ], 1 , [ 200 , 100 ], p = 0.4 ) model TabularModel( (embeds): ModuleList( (0): Embedding(24, 12) (1): Embedding(2, 1) (2): Embedding(7, 4) ) (emb_drop): Dropout(p=0.4) (bn_cont): BatchNorm1d(6, eps=1e-05, momentum=0.1, affine=True, track_running_stats=True) (layers): Sequential( (0): Linear(in_features=23, out_features=200, bias=True) (1): ReLU(inplace) (2): BatchNorm1d(200, eps=1e-05, momentum=0.1, affine=True, track_running_stats=True) (3): Dropout(p=0.4) (4): Linear(in_features=200, out_features=100, bias=True) (5): ReLU(inplace) (6): BatchNorm1d(100, eps=1e-05, momentum=0.1, affine=True, track_running_stats=True) (7): Dropout(p=0.4) (8): Linear(in_features=100, out_features=1, bias=True) ) ) Define loss function & optimizer \u00b6 PyTorch does not offer a built-in RMSE Loss function, and it would be nice to see this in place of MSE. For this reason, we\u2019ll simply apply the torch.sqrt() function to the output of MSELoss during training. criterion = nn . MSELoss () # we'll convert this to RMSE later optimizer = torch . optim . Adam ( m
…
, 1 ) return self . layers ( x ) Now define the model. Before we can load the saved settings, we need to instantiate our TabularModel with the parameters we used before (embedding sizes, number of continuous columns, output size, layer sizes, and dropout layer p-value). emb_szs = [( 24 , 12 ), ( 2 , 1 ), ( 7 , 4 )] model2 = TabularModel ( emb_szs , 6 , 1 , [ 200 , 100 ], p = 0.4 ) Once the model is set up, loading the saved settings is a snap. model2 . load_state_dict ( torch . load ( 'TaxiFareRegrModel.pt' )); model2 . eval () # be sure to run this step! TabularModel( (embeds): ModuleList( (0): Embedding(24, 12) (1): Embedding(2, 1) (2): Embedding(7, 4) ) (emb_drop): Dropout(p=0.4) (bn_cont): BatchNorm1d(6, eps=1e-05, momentum=0.1, affine=True, track_running_stats=True) (layers): Sequential( (0): Linear(in_features=23, out_features=200, bias=True) (1): ReLU(inplace) (2): BatchNorm1d(200, eps=1e-05, momentum=0.1, affine=True, track_running_stats=True) (3): Dropout(p=0.4) (4): Linear(in_features=200, out_features=100, bias=True) (5): ReLU(inplace) (6): BatchNorm1d(100, eps=1e-05, momentum=0.1, affine=True, track_running_stats=True) (7): Dropout(p=0.4) (8): Linear(in_features=100, out_features=1, bias=True) ) ) Next we\u2019ll define a function that takes in new parameters from the user, performs all of the preprocessing steps above, and passes the new data through our trained model. def test_data ( mdl ): # pass in the name of the new model # INPUT NEW DATA plat = float ( input ( 'What is the pickup latitude? ' )) plong = float ( input ( 'What is the picku
…
 ( nn . Dropout ( p )) n_in = i layerlist . append ( nn . Linear ( layers [ - 1 ], out_sz )) self . layers = nn . Sequential ( * layerlist ) def forward ( self , x_cat , x_cont ): embeddings = [] for i , e in enumerate ( self . embeds ): embeddings . append ( e ( x_cat [:, i ])) x = torch . cat ( embeddings , 1 ) x = self . emb_drop ( x ) x_cont = self . bn_cont ( x_cont ) x = torch . cat ([ x , x_cont ], 1 ) x = self . layers ( x ) return x torch . manual_seed ( 33 ) model = TabularModel ( emb_szs , conts . shape [ 1 ], 1 , [ 200 , 100 ], p = 0.4 ) model TabularModel( (embeds): ModuleList( (0): Embedding(24, 12) (1): Embedding(2, 1) (2): Embedding(7, 4) ) (emb_drop): Dropout(p=0.4) (bn_cont): BatchNorm1d(6, eps=1e-05, momentum=0.1, affine=True, track_running_stats=True) (layers): Sequential( (0): Linear(in_features=23, out_features=200, bias=True) (1): ReLU(inplace) (2): BatchNorm1d(200, eps=1e-05, momentum=0.1, affine=True, track_running_stats=True) (3): Dropout(p=0.4) (4): Linear(in_features=200, out_features=100, bias=True) (5): ReLU(inplace) (6): BatchNorm1d(100, eps=1e-05, momentum=0.1, affine=True, track_running_stats=True) (7): Dropout(p=0.4) (8): Linear(in_features=100, out_features=1, bias=True) ) )","title":"Define a TabularModel"},{"location":"bootcampsnotes/pytorchDLbootcamp/anns/04a-Full-ANN-Code-Along-Regression/#define-loss-function-optimizer","text":"PyTorch does not offer a built-in RMSE Loss function, and it would be nice to see this in place of MSE. For this reason, we\u2019ll simply apply the torch.sqrt() function to the output of MSE
…
ut ( p )) n_in = i layerlist . append ( nn . Linear ( layers [ - 1 ], out_sz )) self . layers = nn . Sequential ( * layerlist ) def forward ( self , x_cat , x_cont ): embeddings = [] for i , e in enumerate ( self . embeds ): embeddings . append ( e ( x_cat [:, i ])) x = torch . cat ( embeddings , 1 ) x = self . emb_drop ( x ) x_cont = self . bn_cont ( x_cont ) x = torch . cat ([ x , x_cont ], 1 ) x = self . layers ( x ) return x torch . manual_seed ( 33 ) model = TabularModel ( emb_szs , conts . shape [ 1 ], 2 , [ 200 , 100 ], p = 0.4 ) # out_sz = 2 model TabularModel( (embeds): ModuleList( (0): Embedding(24, 12) (1): Embedding(2, 1) (2): Embedding(7, 4) ) (emb_drop): Dropout(p=0.4) (bn_cont): BatchNorm1d(6, eps=1e-05, momentum=0.1, affine=True, track_running_stats=True) (layers): Sequential( (0): Linear(in_features=23, out_features=200, bias=True) (1): ReLU(inplace) (2): BatchNorm1d(200, eps=1e-05, momentum=0.1, affine=True, track_running_stats=True) (3): Dropout(p=0.4) (4): Linear(in_features=200, out_features=100, bias=True) (5): ReLU(inplace) (6): BatchNorm1d(100, eps=1e-05, momentum=0.1, affine=True, track_running_stats=True) (7): Dropout(p=0.4) (8): Linear(in_features=100, out_features=2, bias=True) ) ) Define loss function & optimizer \u00b6 For our classification we\u2019ll replace the MSE loss function with torch.nn.CrossEntropyLoss() For the optimizer, we\u2019ll continue to use torch.optim.Adam() criterion = nn . CrossEntropyLoss () optimizer = torch . optim . Adam ( model . parameters (), lr = 0.001 ) Perform train/test splits \u00b6 At this p
…
, 1 ) return self . layers ( x ) Now define the model. Before we can load the saved settings, we need to instantiate our TabularModel with the parameters we used before (embedding sizes, number of continuous columns, output size, layer sizes, and dropout layer p-value). emb_szs = [( 24 , 12 ), ( 2 , 1 ), ( 7 , 4 )] model2 = TabularModel ( emb_szs , 6 , 2 , [ 200 , 100 ], p = 0.4 ) Once the model is set up, loading the saved settings is a snap. model2 . load_state_dict ( torch . load ( 'TaxiFareClssModel.pt' )); model2 . eval () # be sure to run this step! TabularModel( (embeds): ModuleList( (0): Embedding(24, 12) (1): Embedding(2, 1) (2): Embedding(7, 4) ) (emb_drop): Dropout(p=0.4) (bn_cont): BatchNorm1d(6, eps=1e-05, momentum=0.1, affine=True, track_running_stats=True) (layers): Sequential( (0): Linear(in_features=23, out_features=200, bias=True) (1): ReLU(inplace) (2): BatchNorm1d(200, eps=1e-05, momentum=0.1, affine=True, track_running_stats=True) (3): Dropout(p=0.4) (4): Linear(in_features=200, out_features=100, bias=True) (5): ReLU(inplace) (6): BatchNorm1d(100, eps=1e-05, momentum=0.1, affine=True, track_running_stats=True) (7): Dropout(p=0.4) (8): Linear(in_features=100, out_features=2, bias=True) ) ) Next we\u2019ll define a function that takes in new parameters from the user, performs all of the preprocessing steps above, and passes the new data through our trained model. def test_data ( mdl ): # pass in the name of the new model # INPUT NEW DATA plat = float ( input ( 'What is the pickup latitude? ' )) plong = float ( input ( 'What is the picku
…
ut ( p )) n_in = i layerlist . append ( nn . Linear ( layers [ - 1 ], out_sz )) self . layers = nn . Sequential ( * layerlist ) def forward ( self , x_cat , x_cont ): embeddings = [] for i , e in enumerate ( self . embeds ): embeddings . append ( e ( x_cat [:, i ])) x = torch . cat ( embeddings , 1 ) x = self . emb_drop ( x ) x_cont = self . bn_cont ( x_cont ) x = torch . cat ([ x , x_cont ], 1 ) x = self . layers ( x ) return x torch . manual_seed ( 33 ) model = TabularModel ( emb_szs , conts . shape [ 1 ], 2 , [ 200 , 100 ], p = 0.4 ) # out_sz = 2 model TabularModel( (embeds): ModuleList( (0): Embedding(24, 12) (1): Embedding(2, 1) (2): Embedding(7, 4) ) (emb_drop): Dropout(p=0.4) (bn_cont): BatchNorm1d(6, eps=1e-05, momentum=0.1, affine=True, track_running_stats=True) (layers): Sequential( (0): Linear(in_features=23, out_features=200, bias=True) (1): ReLU(inplace) (2): BatchNorm1d(200, eps=1e-05, momentum=0.1, affine=True, track_running_stats=True) (3): Dropout(p=0.4) (4): Linear(in_features=200, out_features=100, bias=True) (5): ReLU(inplace) (6): BatchNorm1d(100, eps=1e-05, momentum=0.1, affine=True, track_running_stats=True) (7): Dropout(p=0.4) (8): Linear(in_features=100, out_features=2, bias=True) ) )","title":"Define a TabularModel"},{"location":"bootcampsnotes/pytorchDLbootcamp/anns/04b-Full-ANN-Code-Along-Classification/#define-loss-function-optimizer","text":"For our classification we\u2019ll replace the MSE loss function with torch.nn.CrossEntropyLoss() For the optimizer, we\u2019ll continue to use torch.optim.Adam() criterion = nn . CrossEnt
…
lf . layers ( x ) return x 10. Set the random seed \u00b6 To obtain results that can be recreated, set a torch manual_seed (we used 33). # CODE HERE torch . manual_seed ( 33 ) <torch._C.Generator at 0x7f2830066510> # DON'T WRITE HERE <torch._C.Generator at 0x1e5e64e5e30> 11. Create a TabularModel instance \u00b6 Create an instance called \u201cmodel\u201d with one hidden layer containing 50 neurons and a dropout layer p-value of 0.4 # CODE HERE model = TabularModel ( emb_szs , conts . shape [ 1 ], 2 , [ 50 ], 0.4 ) # RUN THIS CODE TO COMPARE RESULTS model TabularModel( (embeds): ModuleList( (0): Embedding(2, 1) (1): Embedding(14, 7) (2): Embedding(6, 3) (3): Embedding(5, 3) (4): Embedding(12, 6) ) (emb_drop): Dropout(p=0.4) (bn_cont): BatchNorm1d(2, eps=1e-05, momentum=0.1, affine=True, track_running_stats=True) (layers): Sequential( (0): Linear(in_features=22, out_features=50, bias=True) (1): ReLU(inplace) (2): BatchNorm1d(50, eps=1e-05, momentum=0.1, affine=True, track_running_stats=True) (3): Dropout(p=0.4) (4): Linear(in_features=50, out_features=2, bias=True) ) ) # DON'T WRITE HERE TabularModel( (embeds): ModuleList( (0): Embedding(2, 1) (1): Embedding(14, 7) (2): Embedding(6, 3) (3): Embedding(5, 3) (4): Embedding(12, 6) ) (emb_drop): Dropout(p=0.4) (bn_cont): BatchNorm1d(2, eps=1e-05, momentum=0.1, affine=True, track_running_stats=True) (layers): Sequential( (0): Linear(in_features=22, out_features=50, bias=True) (1): ReLU(inplace) (2): BatchNorm1d(50, eps=1e-05, momentum=0.1, affine=True, track_running_stats=True) (3): Dropout(p=0.4) (4): Linear(in_features=50, out_features=2, bias=True) ) ) 12. Define the loss and optimization functions \u00b6 Create a loss function called \u201ccriterion\u201d using CrossEntropyLoss Create an optimization function called \u201coptimizer\u201d using Adam, with a learning rate of 0.001 # CODE HERE criterion = nn . CrossEntropyLoss () optimizer = torch . optim . Adam ( model . parameters (), lr = 0.001 ) #
…
ers x = self . layers ( x ) return x 10. Set the random seed \u00b6 To obtain results that can be recreated, set a torch manual_seed (we used 33). # CODE HERE # DON'T WRITE HERE torch . manual_seed ( 33 ) <torch._C.Generator at 0x1e5e64e5e30> 11. Create a TabularModel instance \u00b6 Create an instance called \u201cmodel\u201d with one hidden layer containing 50 neurons and a dropout layer p-value of 0.4 # CODE HERE # RUN THIS CODE TO COMPARE RESULTS model # DON'T WRITE HERE model = TabularModel ( emb_szs , conts . shape [ 1 ], 2 , [ 50 ], p = 0.4 ) model TabularModel( (embeds): ModuleList( (0): Embedding(2, 1) (1): Embedding(14, 7) (2): Embedding(6, 3) (3): Embedding(5, 3) (4): Embedding(12, 6) ) (emb_drop): Dropout(p=0.4) (bn_cont): BatchNorm1d(2, eps=1e-05, momentum=0.1, affine=True, track_running_stats=True) (layers): Sequential( (0): Linear(in_features=22, out_features=50, bias=True) (1): ReLU(inplace) (2): BatchNorm1d(50, eps=1e-05, momentum=0.1, affine=True, track_running_stats=True) (3): Dropout(p=0.4) (4): Linear(in_features=50, out_features=2, bias=True) ) ) 12. Define the loss and optimization functions \u00b6 Create a loss function called \u201ccriterion\u201d using CrossEntropyLoss Create an optimization function called \u201coptimizer\u201d using Adam, with a learning rate of 0.001 # CODE HERE # DON'T WRITE HERE criterion = nn . CrossEntropyLoss () optimizer = torch . optim . Adam ( model . parameters
…
